…
      "Model: \"functional_21\"\n",
      "__________________________________________________________________________________________________\n",
      "Layer (type)                    Output Shape         Param #     Connected to                     \n",
      "==================================================================================================\n",
      "input_47 (InputLayer)           [(None, 96, 128, 3)] 0                                            \n",
      "__________________________________________________________________________________________________\n",
      "conv2d_299 (Conv2D)             (None, 96, 128, 32)  896         input_47[0][0]                   \n",
      "__________________________________________________________________________________________________\n",
      "conv2d_300 (Conv2D)             (None, 96, 128, 32)  9248        conv2d_299[0][0]                 \n",
      "__________________________________________________________________________________________________\n",
      "max_pooling2d_105 (MaxPooling2D (None, 48, 64, 32)   0           conv2d_300[0][0]                 \n",
      "__________________________________________________________________________________________________\n",
      "conv2d_301 (Conv2D)             (None, 48, 64, 64)   18496       max_pooling2d_105[0][0]          \n",
      "__________________________________________________________________________________________________\n",
      "conv2d_302 (Conv2D)             (None, 48, 64, 64)   36928       conv2d_301[0][0]                 \n",
      "__________________________________________________________________________________________________\n",
      "max_pooling2d_106 (MaxPooling2D (None, 24, 32, 64)   0           conv2d_302[0][0]                 \n",
      "__________________________________________________________________________________________________\n",
      "conv2d_303 (Conv2D)             (None, 24, 32, 128)  73856       max_pooling2d_106[0][0]          \n",
      "__________________________________________________________________________________________________\n",
      "conv2d_304 (Conv2D)             (None, 24, 32, 128)  147584      conv2d_303[0][0]                 \n",
      "__________________________________________________________________________________________________\n",
      "max_pooling2d_107 (MaxPooling2D (None, 12, 16, 128)  0           conv2d_304[0][0]                 \n",
      "__________________________________________________________________________________________________\n",
      "conv2d_305 (Conv2D)             (None, 12, 16, 256)  295168      max_pooling2d_107[0][0]          \n",
      "__________________________________________________________________________________________________\n",
      "conv2d_306 (Conv2D)             (None, 12, 16, 256)  590080      conv2d_305[0][0]                 \n",
      "__________________________________________________________________________________________________\n",
      "dropout_40 (Dropout)            (None, 12, 16, 256)  0           conv2d_306[0][0]                 \n",
      "__________________________________________________________________________________________________\n",
      "max_pooling2d_108 (MaxPooling2D (None, 6, 8, 256)    0           dropout_40[0][0]                 \n",
      "__________________________________________________________________________________________________\n",
      "conv2d_307 (Conv2D)             (None, 6, 8, 512)    1180160     max_pooling2d_108[0][0]          \n",
      "__________________________________________________________________________________________________\n",
      "conv2d_308 (Conv2D)             (None, 6, 8, 512)    2359808     conv2d_307[0][0]                 \n",
      "__________________________________________________________________________________________________\n",
      "dropout_41 (Dropout)            (None, 6, 8, 512)    0           conv2d_308[0][0]                 \n",
      "__________________________________________________________________________________________________\n",
      "conv2d_transpose_35 (Conv2DTran (None, 12, 16, 256)  1179904     dropout_41[0][0]                 \n",
      "__________________________________________________________________________________________________\n",
      "concatenate_27 (Concatenate)    (None, 12, 16, 512)  0           conv2d_transpose_35[0][0]        \n",
      "                                                                 dropout_40[0][0]                 \n",
      "__________________________________________________________________________________________________\n",
      "conv2d_309 (Conv2D)             (None, 12, 16, 256)  1179904     concatenate_27[0][0]             \n",
      "__________________________________________________________________________________________________\n",
      "conv2d_310 (Conv2D)             (None, 12, 16, 256)  590080      conv2d_309[0][0]                 \n",
      "__________________________________________________________________________________________________\n",
      "conv2d_transpose_36 (Conv2DTran (None, 24, 32, 128)  295040      conv2d_310[0][0]                 \n",
      "__________________________________________________________________________________________________\n",
      "concatenate_28 (Concatenate)    (None, 24, 32, 256)  0           conv2d_transpose_36[0][0]        \n",
      "                                                                 conv2d_304[0][0]                 \n",
      "__________________________________________________________________________________________________\n",
      "conv2d_311 (Conv2D)             (None, 24, 32, 128)  295040      concatenate_28[0][0]             \n",
      "__________________________________________________________________________________________________\n",
      "conv2d_312 (Conv2D)             (None, 24, 32, 128)  147584      conv2d_311[0][0]                 \n",
      "__________________________________________________________________________________________________\n",
      "conv2d_transpose_37 (Conv2DTran (None, 48, 64, 64)   73792       conv2d_312[0][0]                 \n",
      "__________________________________________________________________________________________________\n",
      "concatenate_29 (Concatenate)    (None, 48, 64, 128)  0           conv2d_transpose_37[0][0]        \n",
      "                                                                 conv2d_302[0][0]                 \n",
      "__________________________________________________________________________________________________\n",
      "conv2d_313 (Conv2D)             (None, 48, 64, 64)   73792       concatenate_29[0][0]             \n",
      "__________________________________________________________________________________________________\n",
      "conv2d_314 (Conv2D)             (None, 48, 64, 64)   36928       conv2d_313[0][0]                 \n",
      "__________________________________________________________________________________________________\n",
      "conv2d_transpose_38 (Conv2DTran (None, 96, 128, 32)  18464       conv2d_314[0][0]                 \n",
      "__________________________________________________________________________________________________\n",
      "concatenate_30 (Concatenate)    (None, 96, 128, 64)  0           conv2d_transpose_38[0][0]        \n",
      "                                                                 conv2d_300[0][0]                 \n",
      "__________________________________________________________________________________________________\n",
      "conv2d_315 (Conv2D)             (None, 96, 128, 32)  18464       concatenate_30[0][0]             \n",
      "__________________________________________________________________________________________________\n",
      "conv2d_316 (Conv2D)             (None, 96, 128, 32)  9248        conv2d_315[0][0]                 \n",
      "__________________________________________________________________________________________________\n",
      "conv2d_317 (Conv2D)             (None, 96, 128, 32)  9248        conv2d_316[0][0]                 \n",
      "__________________________________________________________________________________________________\n",
      "conv2d_318 (Conv2D)             (None, 96, 128, 23)  759         conv2d_317[0][0]                 \n",
      "==================================================================================================\n",
      "Total params: 8,640,471\n",
      "Trainable params: 8,640,471\n",
      "Non-trainable params: 0\n",
      "__________________________________________________________________________________________________\n"
     ]
    }
   ],
   "source": [
…
